scripts/python/cann/cann_model.pth (torch, 25960 bytes, 4 tensors)

recurrent_layer.weight f4 [64, 89]
0	0x3ca91ca0	0.020643532
1	0x3d592f94	0.05302389
2	0x3dccddd6	0.10003249
3	0x3d4203d0	0.047366917
4	0xbc15a75e	-0.009134142
5	0x3da0e223	0.07855632
6	0xbd295cd2	-0.041348286
7	0xbb728386	-0.0037004664
8	0x3de668fc	0.11250493
9	0x3d2d1ffa	0.042266823
10	0xbd64ab42	-0.055827387
11	0x3d3e52a9	0.04646555
12	0x3d5125a9	0.051061306
13	0x3d26b043	0.04069544
14	0xbc07a44f	-0.00827892
15	0x3c9375e2	0.018000547
16	0x3dce60c7	0.100770526
17	0xbd1c2813	-0.038124155
18	0xbd555f13	-0.052092623
19	0xbcf98c4c	-0.030462407
20	0x3cccf7b3	0.025020456
21	0xbd013659	-0.03154597
22	0x3e11d646	0.14241895
23	0x3d8f2210	0.06988919
24	0xbc7159fb	-0.014730926
25	0xbd966582	-0.0734358
26	0xbdba69ad	-0.09102187
27	0xbd93dc4d	-0.072197534
28	0xbdce6d4b	-0.1007944
29	0x3ca82a3a	0.020527948
30	0xbc53c46d	-0.0129252495
31	0xbdca763a	-0.09885831
32	0xbd22d81d	-0.039756883
33	0xbc1daeae	-0.009624166
34	0xbd8caa6c	-0.06868443
35	0xbdd5861b	-0.10425969
36	0xbd51d626	-0.05122962
37	0x3b740177	0.0037232318
38	0xbdb92f66	-0.09042244
39	0xbd4b4513	-0.04962642
40	0x3d297eaf	0.04138058
41	0xbdcd8e81	-0.10036946
42	0xbd954a8d	-0.0728961
43	0x3d94bc4c	0.07262477
44	0x3d4b4043	0.04962183
45	0xbd4d44d7	-0.05011448
46	0x3d8480d2	0.06469883
47	0x3d1eb24d	0.03874426
48	0xbd9cfc70	-0.07665336
49	0xbd976d45	-0.073938884
50	0xbd3d0674	-0.046148732
51	0xbd1a829a	-0.037722208
52	0xbdcc67af	-0.099807136
53	0x3d92834e	0.07153951
54	0x3d96218b	0.073306166
55	0xbdba0350	-0.09082663
56	0x3ca09573	0.019602513
57	0x3d0c6294	0.0342737
58	0xbd02a7d6	-0.031898342
59	0x3cfc413f	0.03079283
60	0xbd90624e	-0.0705
61	0xbd5baacf	-0.053629693
62	0xbb922594	-0.004460046
63	0x3d2242da	0.039614536
64	0xbd3b6a21	-0.04575551
65	0xbc35298f	-0.011057272
66	0xbd97c517	-0.07410639
67	0xbcca2163	-0.024674123
68	0x3d153daa	0.03643576
69	0x3d76e1d5	0.060273964
70	0xbd7f3765	-0.062308688
71	0xbc5e3275	-0.013561835
72	0xbd047a8a	-0.032343425
73	0xbd99171b	-0.0747511
74	0xbd58dac1	-0.052942995
75	0x3d1a98f5	0.037743527
76	0xbce6d9aa	-0.028179962
77	0x3d980431	0.074226744
78	0xbcf49eb0	-0.029860824
79	0xbd2e2527	-0.0425159
80	0x3d476447	0.048679616
81	0x3db6fd9f	0.08935093
82	0x3d3cf49f	0.046131726
83	0x3dc981d0	0.09839213
84	0xbc8cbc96	-0.017179769
85	0xbc521081	-0.012821318
86	0x3d340336	0.043948375
87	0x3d40df6b	0.047088068
88	0x3dd2eb2e	0.10298763
89	0xbd11a535	-0.035557944
90	0x3dd23ea3	0.10265853
91	0x3dbcd9b2	0.092212096
92	0x3cb4f8af	0.022091238
93	0xbd50d1f6	-0.050981484
94	0x3ddce4c0	0.10785818
95	0x3d5c281a	0.05374918
96	0xbd70d22f	-0.058794197
97	0xbe02d69b	-0.12777178
98	0x3c7ef692	0.015561717
99	0x3d0ac41d	0.033878434
100	0xbd10174d	-0.03517847
101	0xbd489f10	-0.04897982
102	0x3d2eca39	0.042673323
103	0x3c914036	0.017730813
104	0xbd1582a3	-0.036501538
105	0xbd986b3f	-0.074423306
106	0x3c76f946	0.01507408
107	0x3c20886a	0.009798149
108	0x39fc322e	0.00048102572
109	0x3d60ff95	0.054931242
110	0x3c945efb	0.018111696
111	0x3d14504c	0.03620939
112	0xbcdaf279	-0.026726948
113	0xbd51c045	-0.051208753
114	0xbc489a83	-0.01224387
115	0xbd80e76b	-0.062941395
116	0xbdc61d0b	-0.09673508
117	0x3dab28cd	0.083573915
118	0x3d9ad07b	0.07559296
119	0xbd80b3b2	-0.06284274
120	0xbd121182	-0.035661228
121	0xbca7829d	-0.020448023
122	0xb99e4f89	-0.00030195367
123	0x3d44cd36	0.048047267
124	0xbd6353a9	-0.055499706
125	0x3d0ad075	0.033890206
126	0x3d6fc844	0.058540598
127	0xbd8ac45f	-0.06775736
128	0x3d531c56	0.051540695
129	0xbd1222c9	-0.035677705
130	0xbd3a2efe	-0.04545497
131	0xbdc0a3c9	-0.094062395
132	0xbd83fca0	-0.06444669
133	0xbd877c58	-0.066155136
134	0xbd0134eb	-0.031544607
135	0xbbf7737d	-0.007551609
136	0xbd340918	-0.043953985
137	0xbd207d48	-0.039181978
138	0xbad5d469	-0.0016313914
139	0x3d87a236	0.06622736
140	0xbbf448cd	-0.0074549676
141	0xbbb130ea	-0.0054074423
142	0xbd75b9d4	-0.059991673
143	0xbd1f284b	-0.038856786
144	0x3d128d65	0.035779376
145	0xbd0144ec	-0.03155987
146	0x3d93edaf	0.07223069
147	0x3dd6abaa	0.10481961
148	0x3d8be07a	0.06829925
149	0x3d0eb792	0.034843035
150	0xbd33d949	-0.04390839
151	0x3dbe7095	0.09298817
152	0xbd519dee	-0.051176004
153	0x3d84dd53	0.06487527
154	0xbd3b9c63	-0.04580344
155	0x3dc4f312	0.096166745
156	0x3cefc641	0.02926934
157	0x3d243e46	0.04009845
158	0xbd7f0c59	-0.062267635
159	0xbd5ec540	-0.05438733
160	0xbd276310	-0.040865958
161	0xbd70203f	-0.058624502
162	0x3ca15614	0.019694366
163	0x3d2bf9f1	0.04198641
164	0xbda1f3eb	-0.07907852
165	0xbdd3bf50	-0.10339224
166	0xbd05e371	-0.03268761
167	0x3c1411af	0.009037419
168	0xbd0f26df	-0.03494918
169	0x3db18aad	0.086690284
170	0x3cd80e59	0.026374029
171	0x3cb0ebcd	0.021596814
172	0x3dd6dc05	0.10491184
173	0xbcca92cf	-0.024728207
174	0xbd921303	-0.071325324
175	0xbac742ea	-0.0015202437
176	0x3dc0d4bd	0.094155766
177	0xbd2e5e5a	-0.04257045
178	0xbc9464b1	-0.01811442
179	0xbd5218c7	-0.05129316
180	0x3e00ff61	0.1259742
181	0x3db2d6cc	0.087323755
182	0xbd61a858	-0.055092186
183	0x3e42c5ff	0.19020842
184	0x3e0269ba	0.12735644
185	0x3d700060	0.058594108
186	0x3db52bbe	0.08846234
187	0x3e117fab	0.14208858
188	0xbdc58054	-0.09643617
189	0x3d7dee34	0.061994746
190	0xbd52fe00	-0.051511765
191	0xbd2f2e2c	-0.042768642
192	0x3d59cb31	0.053172294
193	0x3e10ac52	0.14128235
194	0x3e2040bd	0.15649696
195	0xbdf468ec	-0.11934075
196	0xbcbf3fd1	-0.02334586
197	0xbdad0fe3	-0.08450296
198	0x3db93129	0.0904258
199	0xbdd459ce	-0.103686914
200	0xbd1a7c39	-0.037716124
201	0x3e07923b	0.13239376
202	0xbe176421	-0.1478429
203	0x3bcbe18e	0.0062219566
204	0xbdb2b9d8	-0.08726853
205	0x3daa6413	0.08319869
206	0x3c83ab7c	0.016072981
207	0x3d06f621	0.03294957
208	0x3dd7b7fd	0.1053314
209	0x3ce0f7b3	0.027461862
210	0xbd9118e7	-0.07084828
211	0x3dc893ec	0.09793839
212	0xbc43db7e	-0.0119541865
213	0x3dc73cf2	0.09728421
214	0x3d6847c7	0.056709077
215	0x3d82b921	0.06382967
216	0xbc1d4004	-0.009597782
217	0xbd636839	-0.055519316
218	0x3d02a9c2	0.031900175
219	0xbcfe3153	-0.031029379
220	0xbaf053f9	-0.0018335573
221	0xbdd7fbb4	-0.105460554
222	0xbdd444a2	-0.10364653
223	0xbcfb532b	-0.030679306
224	0x3ca22f53	0.019797957
225	0x3d43c775	0.04779764
226	0x3dc206d9	0.09473962
227	0xbbf16945	-0.0073672854
228	0xbc94225a	-0.018082786
229	0xbdb78ef2	-0.089628115
230	0xbdbfc5cc	-0.09363899
231	0x3d60054b	0.054692548
232	0x3b70ddc6	0.003675328
233	0xbcea98e9	-0.028637366
234	0x3d28ed58	0.041241974
235	0xbc51d43e	-0.01280695
236	0x3b0ae12d	0.0021191344
237	0x3d89d215	0.06729523
238	0x3dbf89fb	0.093524896
239	0xbd8d0a81	-0.06886769
240	0xbd49ac31	-0.04923648
241	0x3cc72fc8	0.024314776
242	0xbdc8e36a	-0.09809001
243	0xbd13d6af	-0.03609341
244	0x3d9ff9cb	0.07811316
245	0xbd91da29	-0.07121689
246	0x3d612901	0.054970745
247	0x3d046502	0.03232289
248	0xbdd0b50c	-0.10190782
249	0xbd25450c	-0.04034905
250	0x3c503490	0.012707844
251	0x3dae847e	0.08521365
252	0xbd408093	-0.046997618
253	0x3bad1310	0.0052818134
254	0xbdc361f8	-0.095401704
255	0x3db74ad4	0.08949819

recurrent_layer.bias f4 [64]
0	0xbcc3a900	-0.023884296
1	0x3e145902	0.14487079
2	0xbdbb324f	-0.09140455
3	0xbde6cd08	-0.11269575
4	0x3e0c197e	0.136816
5	0x3dd1c991	0.10243524
6	0x3daf0ad4	0.08546987
7	0x3d912326	0.07086782
8	0xbde04922	-0.10951449
9	0x3e1b279f	0.15151833
10	0x3dbd5822	0.092453256
11	0xbbacb520	-0.005270615
12	0xbe10dbee	-0.14146397
13	0xbd91e1cd	-0.07123146
14	0x3d404e28	0.046949536
15	0x3d825e31	0.06365622
16	0xbdaddac1	-0.084889896
17	0xbcab69d9	-0.020924496
18	0x3e07a26e	0.13245556
19	0xbdf67f7a	-0.12036033
20	0x3e0587ea	0.13040128
21	0x3de62913	0.11238303
22	0xbd30c5d9	-0.043157432
23	0xbde18a00	-0.110126495
24	0x3dc2a52b	0.095041595
25	0xbd2c127b	-0.04200981
26	0x3d093beb	0.033504408
27	0x3e0ca387	0.13734256
28	0x3db473fc	0.08811185
29	0xbdd596b1	-0.10429133
30	0x3d99e8fc	0.07515141
31	0xbe1adc9a	-0.15123215
32	0x3b412e94	0.0029477226
33	0xbe2ec6e0	-0.17068052
34	0x3c1fc448	0.009751387
35	0xbe3f47ed	-0.18679781
36	0x3e0d64c0	0.13807964
37	0x3dd4cb49	0.10390336
38	0x3e0e53c5	0.13899143
39	0x3da119f5	0.07866279
40	0xbdc710e1	-0.09720016
41	0x3dad71c1	0.084689625
42	0xbd1f2e6c	-0.03886263
43	0xbe3d61b1	-0.18494298
44	0xbcd3d24f	-0.025857119
45	0x3df77c94	0.12084308
46	0xbe2d64a0	-0.16932917
47	0xbe1cc1b6	-0.1530827
48	0x3dbbefb0	0.09176576
49	0xbe2a64f7	-0.16640078
50	0x3ce04b95	0.02737979
51	0x3e142d61	0.14470436
52	0xbdc6b37f	-0.09702205
53	0xbe12913e	-0.14313218
54	0xbcd1c8df	-0.025608478
55	0x3dd2d7d8	0.10295075
56	0xbd84475c	-0.06458923
57	0xbd67871c	-0.056525335
58	0xbd68a13b	-0.056794386
59	0xbd83ca58	-0.064350784
60	0x3e0e8eb7	0.13921629
61	0xbd964e76	-0.07339184
62	0xbd96a126	-0.073549554
63	0xbd013075	-0.031540353

output_layer.weight f4 [3, 64]
0	0x3d83bd9c	0.064326495
1	0xbcdba6fd	-0.026813025
2	0xbe272bfd	-0.16325374
3	0xbda54cae	-0.08071266
4	0xbc278cc3	-0.010226431
5	0x3d23596b	0.039880197
6	0x3de9959d	0.114054896
7	0x3acfee5c	0.0015863883
8	0xbb9d2c2f	-0.004796527
9	0x3d138738	0.036017627
10	0x3e26575e	0.16244265
11	0xbd61b1b0	-0.055101097
12	0xbcb41ba3	-0.021985834
13	0xbe0d6a24	-0.1381002
14	0xbe08ef45	-0.13372524
15	0xbdbace82	-0.091214195
16	0xbddaed32	-0.10689773
17	0xbd9043ee	-0.070442066
18	0x3e16d32f	0.14728998
19	0x3b23b91d	0.0024982162
20	0x3e0d39ec	0.13791627
21	0x3d429d62	0.047513373
22	0xbbff1c54	-0.0077853594
23	0xbd7c211a	-0.061555006
24	0x3de6f0e1	0.11276413
25	0xbe11af9a	-0.14227143
26	0x3e0f896d	0.14017268
27	0x3e0efc8a	0.13963524
28	0xbdba6d03	-0.091028236
29	0xbc40f489	-0.011777052
30	0x3ce171ff	0.027520178
31	0xbc75dc75	-0.015006174
32	0xbdbe480c	-0.092910856
33	0xbe13aa78	-0.14420497
34	0x3cb955d0	0.022623926
35	0xbd6a373a	-0.057181574
36	0x3dfc2fe6	0.123138234
37	0xbdb2f106	-0.08737378
38	0x3db92c38	0.09041637
39	0x3d5edc75	0.054409463
40	0xbd2f7121	-0.042832498
41	0x3d716b56	0.058940254
42	0xbcb94da3	-0.022620028
43	0xbc84906e	-0.01618215
44	0xbdab9bcc	-0.08379325
45	0xbd5946b6	-0.05304595
46	0xbe06911b	-0.13141291
47	0xbde263e9	-0.110542126
48	0xbd4acce2	-0.049511798
49	0xbe39edf5	-0.1815718
50	0xbde83fad	-0.1134027
51	0x3e1e0fe1	0.15435745
52	0xbd432195	-0.04763945
53	0xbd6aa0d3	-0.05728228
54	0xbdb5003d	-0.08837936
55	0xbbc83d31	-0.00611081
56	0x3c38ed51	0.011287049
57	0xbd3e97a7	-0.046531346
58	0x3d830170	0.063967586
59	0x3dd80660	0.10548091
60	0xbd3cdae7	-0.0461072
61	0x3d9f0374	0.077643305
62	0xbd08d770	-0.033408582
63	0xbe1d8a1f	-0.1538472
64	0xb8e1ee02	-0.000107731685
65	0x3de082ad	0.109624244
66	0xbc675e20	-0.014121562
67	0xbdd921ab	-0.10602125
68	0x3d87db6c	0.06633648
69	0x3e06b7c4	0.13156039
70	0xbd866a8c	-0.06563291
71	0x3d841887	0.06449991
72	0xbe152baa	-0.14567438
73	0x3e4830d2	0.19549873
74	0x3da90aaa	0.08253987
75	0x3df33eea	0.11877234
76	0xbcdc3ee4	-0.026885457
77	0x3dbfeae1	0.093709715
78	0x3e28f781	0.16500665
79	0x3e03eeb8	0.12884033
80	0x3de5e118	0.11224574
81	0xbdca16e9	-0.09867651
82	0x3e2c3834	0.16818315
83	0xbde020c3	-0.10943749
84	0xbcd89fc2	-0.026443366
85	0x3e2beda3	0.1678987
86	0x3dc64b22	0.09682299
87	0xbdd95f19	-0.106138416
88	0x3de97e99	0.114011
89	0xbb6fc054	-0.0036583142
90	0x3dcbdf75	0.099547304
91	0x3dc5b1d0	0.09653056
92	0x3d922396	0.07135694
93	0xbe2f68c3	-0.17129807
94	0xbce87f21	-0.028380932
95	0xbe14f9b6	-0.14548382
96	0x3df39dbb	0.11895319
97	0xbd4834c9	-0.048878465
98	0xbdc32ab3	-0.095296286
99	0xbcf3a0aa	-0.029739697
100	0x3b5e7fb9	0.003395064
101	0x3e23b349	0.1598636
102	0x3e08bc46	0.1335307
103	0xbd5ee2cb	-0.054415505
104	0xbdc35f1e	-0.095396265
105	0xbdf9683d	-0.12178085
106	0xbdaff44f	-0.0859152
107	0x3c33f061	0.010982604
108	0x3c408d63	0.011752459
109	0x3dee8091	0.11645616
110	0xbe377e75	-0.17919333
111	0xbe077ded	-0.1323163
112	0x39506d03	0.00019877036
113	0xbdf1a44b	-0.117989145
114	0x3c15052a	0.0090954695
115	0x3dcff713	0.101545475
116	0xbe01f710	-0.12691903
117	0xbe1cb9db	-0.15305273
118	0x3d97b5fc	0.07407758
119	0x3e2c99f0	0.16855597
120	0xbd94cbb5	-0.072654165
121	0x3d9cf9e6	0.07664852
122	0x3d161fb6	0.036651336
123	0xbd37e89b	-0.044899564
124	0x3d5c3c81	0.05376864
125	0xbd9e3f35	-0.077268995
126	0xbe0c65be	-0.13710687
127	0xbd44b0fe	-0.048020355
128	0xbddd3496	-0.108010456
129	0x3dd95431	0.10611761
130	0xbd32f381	-0.043689255
131	0xbd77123a	-0.060320117
132	0x3e0bb33c	0.13642591
133	0x3c03c70e	0.008043064
134	0x3c486384	0.012230758
135	0x3e13315b	0.14374296
136	0xbe3bfad4	-0.18357402
137	0xbc87bc93	-0.016569411
138	0x3e0313e8	0.12800562
139	0xbd8f37f5	-0.06993095
140	0xbe2528a4	-0.16128784
141	0xbd52c210	-0.051454604
142	0x3a2321f8	0.0006223018
143	0x3e2b134c	0.1670658
144	0xbd1c1d6a	-0.03811399
145	0x3dd67a87	0.10472589
146	0x3e0e940d	0.13923664
147	0xbda69c8a	-0.08135326
148	0x3d6d1cd2	0.057888813
149	0x3e4435b9	0.19161119
150	0xbd1f4d7e	-0.03889226
151	0xbe2779e2	-0.16355088
152	0x3dfbef4d	0.123015024
153	0x3d2ef3a7	0.042712834
154	0xbce264e5	-0.027636
155	0x3e13473a	0.1438264
156	0x3df0cbd3	0.117576264
157	0xbdbc3421	-0.0918963
158	0x3dc043e9	0.09387953
159	0xbe2459c7	-0.16049872
160	0xbd80fbc8	-0.062980235
161	0xbde35b65	-0.111014165
162	0x3d90c719	0.07069225
163	0xbdde3019	-0.10849018
164	0x3d85937e	0.065222725
165	0x3d8c306b	0.068451725
166	0xbdbeabb7	-0.09310096
167	0x3d759ca8	0.059963852
168	0xbd904ebd	-0.07046268
169	0x3e05ad28	0.13054335
170	0xbe08b6b2	-0.13350943
171	0xbe270517	-0.16310535
172	0x3dc098c6	0.09404139
173	0x3e22e891	0.1590903
174	0xbcaaa05e	-0.020828422
175	0xbc18a1a5	-0.009315883
176	0x3e035fb4	0.12829477
177	0x3c3694a4	0.011143837
178	0x3b0f8086	0.0021896674
179	0x3e10d1a2	0.14142469
180	0xbd1e1ee0	-0.038603663
181	0x3d39bd5f	0.045346614
182	0xbd891644	-0.066937
183	0xbd57d0a2	-0.052689202
184	0xbe129139	-0.1431321
185	0xbdc1371f	-0.09434342
186	0xbd0a3602	-0.033742912
187	0xbdaaf6ae	-0.08347832
188	0x3e0c9bac	0.13731259
189	0xbe077c59	-0.13231029
190	0x3c0239f0	0.007948384
191	0x3d0ef0f0	0.034897745

output_layer.bias f4 [3]
0	0x3e2b7276	0.16742882
1	0x3d884853	0.0665442
2	0x3d8b260a	0.06794365
